Model: "sequential"
_________________________________________________________________
 Layer (type)                Output Shape              Param #   
=================================================================
 conv2d (Conv2D)             (None, 64, 64, 32)        896       
                                                                 
 conv2d_1 (Conv2D)           (None, 62, 62, 32)        9248      
                                                                 
 max_pooling2d (MaxPooling2  (None, 31, 31, 32)        0         
 D)                                                              
                                                                 
 dropout (Dropout)           (None, 31, 31, 32)        0         
                                                                 
 conv2d_2 (Conv2D)           (None, 31, 31, 64)        18496     
                                                                 
 conv2d_3 (Conv2D)           (None, 29, 29, 64)        36928     
                                                                 
 max_pooling2d_1 (MaxPoolin  (None, 14, 14, 64)        0         
 g2D)                                                            
                                                                 
 dropout_1 (Dropout)         (None, 14, 14, 64)        0         
                                                                 
 flatten (Flatten)           (None, 12544)             0         
                                                                 
 dense (Dense)               (None, 512)               6423040   
                                                                 
 dense_1 (Dense)             (None, 256)               131328    
                                                                 
 dropout_2 (Dropout)         (None, 256)               0         
                                                                 
 dense_2 (Dense)             (None, 36)                9252      
                                                                 
=================================================================
Total params: 6629188 (25.29 MB)
Trainable params: 6629188 (25.29 MB)
Non-trainable params: 0 (0.00 Byte)
_______________________________________________________________
